net.pkl (torch_old, 8053 bytes, 3 tensors)

weight f4 [10, 1]
00000000: 72b0 633f 4538 0f3f 2060 cf3e 0d73 343f
00000010: 71f9 163f 52f5 8dbf 9709 5dbe 1abf 563f
00000020: d453 8cbe 1853 cabe
0.8894111 0.55945235 0.40503025 0.70488054 0.5897437 -1.1090491 -0.2158569 0.8388535
-0.27407706 -0.3951652

bias f4 [10]
00000000: 14a9 5abe 604d 3f3e e0b6 6abf a19a 34bf
00000010: ce2c 17bf 5fcb 15be 1dea d23e f220 febd
00000020: 1630 6abf 9480 74bf
-0.2135356 0.1868186 -0.91685295 -0.70548445 -0.5905274 -0.14628361 0.4119424 -0.124086276
-0.91479623 -0.95508695

weight f4 [1, 10]
00000000: c21c 013f 3603 833e 4db9 8abe eed9 48be
00000010: f77a 1cbe 1553 773f 43a0 fabb b895 173f
00000020: de6d 8abd 2b68 1cbe
0.50434506 0.25588387 -0.27094498 -0.19614384 -0.15281282 0.9661115 -0.007648499 0.5921283
-0.06759237 -0.15274112
